wip/archive/02_RLHF_Reinforcement_Learning_with_Human_Feedback/ppo-dialogue-summary-checkpoint-local/pytorch_model.bin (torch, 4159 bytes, 1 tensors)

v_head.summary.weight f4 [1, 768]
000000 8f 29 8a 3c 06 47 71 bc 49 8c 01 bd 0a 54 3c bc
       0.01686552 -0.014726406 -0.031627927 -0.011494646
000010 9e df 2c 3c 80 ee 64 3d 33 fb cd bb 57 bd 05 bb
       0.010551361 0.055891514 -0.006286049 -0.0020407045
000020 51 bc 18 3d 91 d3 47 bc c7 c3 f7 3c 03 94 d9 3c
       0.037288968 -0.012196437 0.030244721 0.026559835
000030 0d f5 03 39 21 19 a7 3c 71 77 2e bc 1e 65 d8 3c
       0.00012584422 0.020397725 -0.010648594 0.026415404
000040 f3 35 d6 3a fd e0 7a bc 13 ec ae 3c d2 0e 71 3d
       0.0016342982 -0.01531243 0.021352803 0.058852024
000050 91 bc 0a 3c 71 a3 16 3b 5e d1 1f bd 3f 99 82 bc
       0.008467809 0.0022985602 -0.039018027 -0.015942214
000060 d4 95 09 bd 25 0a 84 bc 43 f4 e2 bb ed 7b 54 3d
       -0.033590153 -0.016118119 -0.006926091 0.051875997
000070 e5 66 5b 3c 50 de 65 ba 84 a4 c1 3c bb 0a ee bb
       0.013391231 -0.0008768784 0.023638017 -0.0072644628
000080 84 d0 d3 3c 8b 72 01 bd 56 0d dd 3c ca 3c 63 bb
       0.025856264 -0.031603377 0.026983898 -0.0034673684
000090 41 a7 9e 3c 9c 00 5d 3d 19 e2 b5 bc a7 44 73 3d
       0.019366862 0.05395566 -0.022202538 0.059391644
0000a0 43 b2 13 3d ca b3 43 bd 64 4a 10 bc 33 bc ba b8
       0.036058675 -0.047778882 -0.008806799 -8.904226e-05
0000b0 7f ed 29 bc 80 7d 8e 3c 6b ea 2a 3d 3f 1b 62 bd
       -0.010371565 0.017393827 0.041727465 -0.055201765
0000c0 5d 1d ae 3c 63 06 d1 3c cd 9d 9f 3c 69 0c 1f 3d
       0.021254236 0.02551574 0.019484425 0.038830195
0000d0 3f 1f 1c 3c 8a 37 94 3c 0d 74 e0 bc c8 72 ae bc
       0.009528934 0.01809289 -0.027399087 -0.021294966
0000e0 c9 81 49 bd 4c 59 c4 b9 08 40 18 bd b2 cb 43 bc
       -0.04919604 -0.00037450565 -0.03717044 -0.01195042
0000f0 01 c1 9e 3c 4e 60 4c 3c 34 3e 34 3c f2 88 86 bc
       0.01937914 0.012474133 0.0110011585 -0.016422722
000100 41 de f6 bb 01 7a 6d 3c 47 dd 05 bd 10 46 5e 3d
       -0.007533819 0.01449442 -0.03268173 0.054266036
000110 90 60 4c bc 2e 61 d1 bb 68 40 c5 bc 48 0b c7 bb
       -0.012474194 -0.0063897585 -0.024078563 -0.006074343
000120 98 93 96 3c 0b 52 54 bd 95 51 5d 3d d3 b4 47 bd
       0.018380925 -0.051836055 0.05403288 -0.04875643
000130 2e 19 0e bd 6e 1f 67 3b 1d da 44 bc 4d cd 3d 3c
       -0.034691982 0.0035266536 -0.012014893 0.011584592
000140 36 60 36 3d 64 f9 d6 3b d3 76 60 3c 8b 25 3d bd
       0.044525348 0.0065604914 0.013700205 -0.046178382
000150 c5 9a 3b bc f3 c0 3d 3c 5f 88 93 bc b9 2e 6f 3c
       -0.011450474 0.011581647 -0.018009363 0.014598542
000160 23 c7 64 3c 87 a5 10 bc 8f fa 55 bd d2 d1 43 3c
       0.0139634935 -0.008828527 -0.052240904 0.0119518805
000170 db 48 a3 3b 9e ad 80 bc de b7 4b bb ef a7 7d 3c
       0.0049830503 -0.015707787 -0.0031084935 0.015481933
000180 f7 96 37 bc e9 5b 01 3d f2 1b 2d bd d3 a4 d7 bc
       -0.011205426 0.031581793 -0.04226298 -0.026323711
000190 be c7 39 3d ab fb a1 bb 88 fa 1e bd b0 62 77 ba
       0.045356505 -0.0049433312 -0.038813144 -0.0009437008
0001a0 67 48 44 3b 0a 61 2b 3c 94 f5 c6 bc 69 cd 75 bc
       0.0029950382 0.010460148 -0.024287023 -0.015002587
0001b0 20 a5 28 3c b6 b9 5f 3c c0 42 60 bc 78 d7 d9 3c
       0.010293275 0.013655117 -0.013687789 0.026592001
0001c0 60 ed 2b 3d f4 85 70 3c 67 2f 5e bc c1 f0 2c bd
       0.041974425 0.014680374 -0.013561106 -0.04222179
0001d0 c1 92 5e bb 1c 29 32 3d 8d 9f 4b 3d ae 25 8a 3c
       -0.0033961984 0.043496236 0.049712706 0.01686367
0001e0 e0 5e f9 3b de ea 50 3a bc da 27 3d 5d a5 38 3c
       0.007610187 0.0007969568 0.040980086 0.011269894
0001f0 bb 49 fa bb 31 c7 b0 3c d1 39 00 bd 2d af 6d 3c
       -0.007638184 0.021579357 -0.031305138 0.014507097
000200 f6 99 ad bc 70 20 20 3d 58 52 32 bd 55 ef c0 3b
       -0.021191578 0.039093435 -0.04353556 0.0058879056
000210 61 9d 03 3b 4e b7 51 3c 12 1a 35 3d 20 32 b1 3c
       0.0020082819 0.012800051 0.044214316 0.021630347
000220 e1 53 a2 bc 4e 7e 89 bb 0a cd 4a 3c aa 75 41 3d
       -0.019815387 -0.004195965 0.012377987 0.047231354
000230 de eb d7 bb e7 7d d5 38 5a ff a5 bb b6 60 31 3c
       -0.006589397 0.000101800826 -0.0050658407 0.01082628
000240 12 57 24 bd cf b9 cc bc f5 14 a0 bc bc 21 8c 3c
       -0.0401221 -0.024990944 -0.019541243 0.01710593
000250 b2 1c 0b bd d5 90 08 3c db e8 26 bd 4d f8 d7 bc
       -0.033962913 0.008335312 -0.040749412 -0.026363516
000260 92 ed 81 3b 5f af 94 b9 5b 86 9a bc 3d 7d 36 3d
       0.003965088 -0.0002835942 -0.018862894 0.04455303
000270 56 3f 5d bd 33 54 ab bc b6 e8 67 3d b4 f8 90 bb
       -0.05401548 -0.020914173 0.056618415 -0.004424179
000280 2c bf 1b bd 59 ea f6 bb 27 af 3a 3b bb 51 8d 3c
       -0.038024113 -0.0075352606 0.0028485747 0.017250886
000290 07 30 b3 3c 85 b6 1a bd 1e d4 32 bd ca d0 54 3c
       0.021873487 -0.03777172 -0.043659322 0.012989232
0002a0 01 a9 f3 ba 76 c1 86 3b eb dd 0a 3c 68 4f b3 bc
       -0.0018589796 0.004112418 0.008475761 -0.02188845
0002b0 52 ff c2 3c 7e ad aa bc 59 88 0e bd 88 69 82 bc
       0.023803387 -0.02083468 -0.034798 -0.015919462
0002c0 50 31 12 3d 0f 5f 1e bd 1d 5e 7f bb 65 ec 66 bb
       0.03569156 -0.038664874 -0.0038966008 -0.0035236117
0002d0 00 c9 10 3a 55 f7 a5 3c f2 6a c1 3c 7a 7a 11 3d
       0.00055231154 0.020259539 0.023610566 0.035517193
0002e0 ed 6f 8f bb d1 25 09 3d e9 b7 91 bb b5 ee 1f 3c
       -0.0043773563 0.03348333 -0.0044469726 0.009761502
0002f0 08 25 80 bc b3 a0 74 3c 80 d6 10 bc e2 f5 45 bc
       -0.015642658 0.014930892 -0.008840203 -0.012082549
000300 21 56 bf 3c be c4 40 bd d8 7c 11 bb 05 ef 9f 3c
       0.0233565 -0.047062628 -0.0022199657 0.019523153
000310 fb c8 dd bb 64 2b 64 3d 42 f4 a5 3b 50 f0 01 bd
       -0.0067683435 0.055705443 0.005064518 -0.03172332
000320 fa 46 a4 3c 2e dc fd bb ec 0d bd 3c f9 ba 28 3d
       0.020053376 -0.0077471947 0.023077928 0.041193936
000330 a5 78 38 3a d0 73 4e 3d 13 9c 31 bc 48 e4 e1 bc
       0.00070370204 0.050403416 -0.010840434 -0.027574673
000340 77 e1 bf bc bf c6 4b bd b4 27 87 3c 0d 91 c1 bc
       -0.02342294 -0.049750086 0.016498424 -0.023628736
000350 90 14 0e 3d 8e 01 0b bd 11 5e ca bc b6 02 fe bc
       0.03468758 -0.03393703 -0.024703057 -0.031007152
000360 15 84 ea bc 3f 01 10 3d ec 90 09 bd a5 45 9f bc
       -0.028627435 0.03515744 -0.033585474 -0.019442389
000370 c0 38 fe bc 92 bf 08 3d 09 1f 36 3d 9c 9e 67 3c
       -0.03103292 0.03338582 0.04446319 0.0141369365
000380 51 e5 91 3c df f3 e4 3c fa d6 e8 bb 73 fb ca 3c
       0.017809542 0.027948318 -0.0071057053 0.024778103
000390 05 45 3b bc 56 50 1c 3d 69 ab ab 3c e4 74 d3 3c
       -0.01143003 0.03816255 0.020955758 0.025812574
0003a0 e5 d1 39 39 a5 48 9a 3c 9f fb aa bc 16 6a 91 3c
       0.00017721167 0.018833468 -0.020871935 0.017750781
0003b0 66 2d 36 bd 1d b8 5c bd 6b 06 83 bc 11 f5 e5 39
       -0.04447689 -0.05388652 -0.015994271 0.00043860872
0003c0 fa 5f 4a 3c c7 c3 0e bd 1e da d5 3b c3 4a 00 3c
       0.012351984 -0.034854677 0.0065262457 0.007830325
0003d0 9d d0 06 bd 34 90 41 3c d8 c0 8c bc ef ad 35 3b
       -0.032913793 0.011814166 -0.017181799 0.002772208
0003e0 f0 78 2f 3d 3c e3 8f bb 17 3c b0 bc 6a 5a d3 bc
       0.042839944 -0.004391102 -0.021513028 -0.025799949
0003f0 c9 46 62 bd c5 80 7a 3b f2 18 1f bc a4 fe a5 3b
       -0.055243287 0.0038223725 -0.009710537 0.005065756
